…
hare_decoder_input_output_embed=False, skip_invalid_size_inputs_valid_test=False, source_lang='input', target_lang='label', task='translation', tensorboard_logdir='', threshold_loss_scale=None, train_subset='train', update_freq=[1], upsample_primary=1, user_dir=None, valid_subset='valid', validate_interval=1, weight_decay=0.0)
| [input] dictionary: 10328 types
| [label] dictionary: 8 types
| /home/getalp/sfeirj/sfeirseq/maxmentionsfr-bin train 24141 examples
| /home/getalp/sfeirj/sfeirseq/maxmentionsfr-bin valid 4971 examples
TransformerModel(
  (encoder): TransformerEncoder(
    (embed_tokens): Embedding(10328, 128, padding_idx=1)
    (embed_positions): SinusoidalPositionalEmbedding()
    (layers): ModuleList(
      (0): TransformerEncoderLayer(
        (self_attn): MultiheadAttention(
          (out_proj): Linear(in_features=128, out_features=128, bias=True)
        )
        (fc1): Linear(in_features=128, out_features=2048, bias=True)
        (fc2): Linear(in_features=2048, out_features=128, bias=True)
        (layer_norms): ModuleList(
          (0): LayerNorm(torch.Size([128]), eps=1e-05, elementwise_affine=True)
          (1): LayerNorm(torch.Size([128]), eps=1e-05, elementwise_affine=True)
        )
      )
    )
  )
  (decoder): TransformerDecoder(
    (embed_tokens): Embedding(8, 128, padding_idx=1)
    (embed_positions): SinusoidalPositionalEmbedding()
    (layers): ModuleList(
      (0): TransformerDecoderLayer(
        (self_attn): MultiheadAttention(
          (out_proj): Linear(in_features=128, out_features=128, bias=True)
        )
        (self_attn_layer_norm): LayerNorm(torch.Size([128]), eps=1e-05, elementwise_affine=True)
        (encoder_attn): MultiheadAttention(
          (out_proj): Linear(in_features=128, out_features=128, bias=True)
        )
        (encoder_attn_layer_norm): LayerNorm(torch.Size([128]), eps=1e-05, elementwise_affine=True)
        (fc1): Linear(in_features=128, out_features=2048, bias=True)
        (fc2): Linear(in_features=2048, out_features=128, bias=True)
        (final_layer_norm): LayerNorm(torch.Size([128]), eps=1e-05, elementwise_affine=True)
      )
    )
  )
)
| model transformer, criterion CrossEntropyCriterion
| num. model params: 2576384 (num. trained: 2576384)
| training on 1 GPUs
| max tokens per GPU = 6000 and max sentences per GPU = 50
| no existing checkpoint found /home/getalp/sfeirj/sfeirseq/checkpoints/checkpoint_last.pt
| epoch 001 | loss 1.254 | ppl 2.38 | wps 25807 | ups 38 | wpb 636.428 | bsz 47.615 | num_updates 507 | lr 0.0005 | gnorm 1.748 | clip 0.000 | oom 0.000 | wall 13 | train_wall 9
…
